snapshots/Epoch99.pth (torch, 70335 bytes, 33 tensors)

e_conv1.weight f4 [4, 1, 3, 3]
000000 2a 38 cf bd a2 c8 72 bd 02 25 24 bd e1 91 e2 bd
       -0.10118134 -0.05927337 -0.040074356 -0.110629804
000010 26 a5 8b bd 0a 96 57 bd 41 c8 11 be 9c 3b ca bd
       -0.06818609 -0.052633323 -0.14236547 -0.09874651
000020 bb d4 a6 bd b9 c4 e5 bd fc e6 2a 3c 3b 2f 2f be
       -0.08146044 -0.112191625 0.0104310475 -0.1710786
000030 dd 01 15 3d 45 de 05 3e 1e c8 c3 bc e7 6b 4a bd
       0.03637873 0.1307307 -0.023899134 -0.04941931
000040 55 ee 3e 3d c1 32 e1 bd a9 9e 8f 3e 94 36 3e 3e
       0.04661401 -0.10996009 0.28050736 0.18575507
000050 4a cf 05 3e b7 2b 92 3e 07 fa 3d 3e c8 e1 36 3e
       0.13067356 0.28548977 0.18552409 0.17859566
000060 c6 bf f6 3e 07 24 a6 3e e3 cf 9a 3e 08 e5 7b bd
       0.48193187 0.32449362 0.3023673 -0.061497718
000070 59 db c5 bb 40 60 b7 3d 89 8e 44 bd 67 48 52 bc
       -0.006038111 0.08953905 -0.047987495 -0.012834645
000080 36 0d a4 3d e6 e6 21 bd 35 8a a3 bc 0c 94 80 3d
       0.08010332 -0.039526843 -0.019963363 0.06278238

e_conv1.bias f4 [4]
000000 ed 4d 50 3d a1 ab 60 3e 00 59 85 3e f2 30 37 3d
       0.050855566 0.21940471 0.26044464 0.044724412

e_conv2.weight f4 [4, 4, 3, 3]
000000 7d 7a bf 3b e8 ad 99 3c 8f e2 6f 3d 8e 4c 90 bc
       0.005843459 0.018759683 0.058565672 -0.01761463
000010 48 6a a8 bb ee 4c 18 3d 73 39 87 bc c6 2c 3f ba
       -0.005139623 0.03718274 -0.016506886 -0.00072927435
000020 3f 75 27 3d 74 b0 4a be df 63 16 bd 30 2f 7b 3d
       0.0408833 -0.19793874 -0.03671634 0.0613243
000030 19 95 0a be 67 b3 01 3b 58 02 11 3d 17 98 57 be
       -0.13533439 0.001979077 0.035402626 -0.21054111
000040 2f 70 1e bd 78 43 8e bc 1e 8a 28 3e 7e 9b b9 3d
       -0.038681205 -0.017366156 0.16458938 0.09062861
000050 2b 56 ca bc 7d f4 2d 3e 37 1e e1 3d 64 80 d6 bc
       -0.024699291 0.16987796 0.10992091 -0.026184268
000060 1e 65 45 3e 51 4b 05 3e 8e ef a8 ba ab f7 8b bd
       0.19276854 0.13017012 -0.0012888776 -0.06834348
000070 9e 9f 95 3a e1 2d ab bd 66 1d bb bd 83 2f e1 bc
       0.0011415367 -0.0835836 -0.09136467 -0.027488476
000080 49 a9 a3 bd cb c5 dd bd ba 88 4c bd d1 b8 be bd
       -0.07991273 -0.10828742 -0.04993508 -0.09312595
000090 1a d2 56 bd 53 dd 7e bd a4 66 7b bd 9d ef 87 bd
       -0.052446462 -0.06222279 -0.061377183 -0.066374995
0000a0 95 35 9a bd 34 89 95 bd 55 79 88 bd ab 49 95 bd
       -0.07529751 -0.0730156 -0.06663767 -0.07289442
0000b0 de b1 8d bd 7b 2d 40 bd 19 0d 06 be 28 88 4d be
       -0.06918691 -0.046918374 -0.13090934 -0.2007147
0000c0 20 a1 9e bd 95 c6 0f be 27 a8 6a be 56 9a fe bd
       -0.07745576 -0.14040597 -0.22915708 -0.12431781
0000d0 cf a1 23 be 6f 12 5e be 59 3c 7a bb ec 13 c5 3d
       -0.15979694 -0.2168672 -0.0038182943 0.096229404
0000e0 46 44 29 3e 7f d5 7e 3d 52 53 0d 3e d0 2e 22 3e
       0.1652995 0.062215324 0.13801315 0.1583817
0000f0 65 dc be 3d 7f 84 09 3e c7 b9 f3 3d 9c e3 73 3c
       0.09319381 0.1342945 0.119006686 0.014885809
000100 6e 5f b7 3d ca ed a3 3d f3 d0 b6 bb a2 74 87 3d
       0.08953749 0.08004339 -0.005579108 0.06614043
000110 f4 57 96 3d ea b2 28 bd b5 61 14 3d 68 2b 5b 3d
       0.073409945 -0.04118625 0.036225993 0.053508192
000120 98 ed 01 00 88 a1 01 00 a8 9d 01 80 b4 a0 01 80
       1.77068e-40 1.49782e-40 -1.48392e-40 -1.49485e-40
000130 f8 b8 01 00 66 b1 01 00 d0 91 01 80 e0 8d 01 80
       1.5819e-40 1.55474e-40 -1.44143e-40 -1.4273e-40
000140 8c 9b 01 00 be 23 01 00 c4 0a 00 80 bf 4d 00 00
       1.47635e-40 1.04657e-40 -3.862e-42 2.789e-41
000150 1c 87 01 00 f3 5c 00 00 89 26 01 00 74 ae 00 80
       1.40304e-40 3.3344e-41 1.0566e-40 -6.2582e-41
000160 40 28 01 80 dd 18 01 80 ba 5b 00 00 cf 12 01 00
       -1.06274e-40 -1.00755e-40 3.2905e-41 9.8583e-41
000170 40 4d 00 00 8c d4 00 00 7b 5f 00 80 13 eb 00 80
       2.7712e-41 7.6247e-41 -3.4252e-41 -8.4329e-41
000180 1d 02 01 00 7d 02 01 00 87 d0 00 80 f6 a0 01 80
       9.2594e-41 9.2728e-41 -7.4806e-41 -1.49577e-40
000190 63 04 02 80 83 14 00 80 7f 13 01 80 0a 01 02 80
       -1.85245e-40 -7.358e-42 -9.883e-41 -1.84044e-40
0001a0 10 21 00 80 13 0c 01 80 2d 1e 02 80 7d f9 01 80
       -1.186e-41 -9.6167e-41 -1.94496e-40 -1.81335e-40
0001b0 ef c9 9d bd 4d bf 26 bd bd 89 c0 bc 9d 1a a6 bd
       -0.077045314 -0.040709782 -0.023503179 -0.08110545
0001c0 48 b3 35 bd b1 13 f1 bc 45 e9 ce bd dc 4f 8b bd
       -0.04436043 -0.029428335 -0.101030864 -0.06802341
0001d0 94 21 61 bd 01 7b a8 3e 8e ec 7a 3e 84 10 d3 3e
       -0.054963663 0.32906345 0.24504301 0.41223538
0001e0 81 8e 49 3e e8 f8 ca 3d 19 9b 82 3e cc 9e 88 3e
       0.19683267 0.09910756 0.25508955 0.26683652
0001f0 e4 0b 2b 3e f1 99 9e 3e 02 2f 02 bd db 8a 36 3d
       0.16703755 0.30976823 -0.03178311 0.044566017
000200 d6 b3 c3 3c 8f 03 4f bc 0c de 65 3d 20 dd 17 3d
       0.023889463 -0.012635126 0.056119964 0.037076116
000210 61 4f 98 bd f4 f8 71 bc 02 ce f6 bc 24 99 7b 3d
       -0.07437015 -0.014768828 -0.030127529 0.061425343
000220 1e 72 57 3c e4 44 2f bd 5e aa 53 3d f0 4e 4a 3c
       0.013149766 -0.04279031 0.051676147 0.012347922
000230 a1 31 f2 bc f3 e6 38 3d 25 0d 1f 3c 39 15 c9 bc
       -0.02956468 0.045142125 0.009707724 -0.024546253

e_conv2.bias f4 [4]
000000 42 b3 30 3b 54 ae ce bc 21 03 19 80 03 3b ca bb
       0.0026962315 -0.02522961 -2.29701e-39 -0.0061715855

e_conv3.weight f4 [4, 4, 3, 3]
000000 26 42 9a bd e1 cc 31 3b 4b 15 0f 3d 8f eb 12 bd
       -0.07532148 0.0027130174 0.034932416 -0.035869177
000010 59 47 b2 3c 58 d6 f3 3c bc 56 67 bd 85 30 0e bc
       0.021762537 0.029765293 -0.0564792 -0.00867856
000020 3d 14 8f bc c6 5e 01 bd e9 b8 51 3d fc 63 01 3d
       -0.017465705 -0.031584524 0.051201735 0.031589493
000030 29 e2 d3 3c da 37 9a 3d b2 7e fa 3c d6 49 ba bc
       0.025864678 0.07530184 0.030577991 -0.022740286
000040 0d 19 d6 3a a4 a7 90 bd 7a 52 01 80 9c 24 00 00
       0.001633437 -0.07063225 -1.21423e-40 1.3133e-41
000050 35 97 00 80 e4 29 01 00 e4 25 01 00 35 7e 00 00
       -5.4243e-41 1.06863e-40 1.05428e-40 4.5275e-41
000060 c7 5c 00 80 98 3b 01 80 f5 a0 00 80 05 14 7a 3e
       -3.3282e-41 -1.13214e-40 -5.774e-41 0.244217
000070 dc 1b f9 3d 99 a1 60 3e d3 37 31 3e ee cc 94 3d
       0.12163517 0.21936645 0.17306451 0.0726565
000080 00 29 dd 3d 9b a0 7c 3e f6 75 2e 3e a7 7f 5a 3e
       0.10798836 0.24670641 0.17037186 0.21337758
000090 96 f8 75 3d 45 38 bc bc 29 24 23 bd a8 39 46 3d
       0.060051523 -0.02297605 -0.039829407 0.04839483
0000a0 ed de 0f bd 71 41 c2 bc 01 06 0e 3e f0 eb e9 3c
       -0.035124708 -0.023712846 0.13869478 0.028554887
0000b0 47 72 37 3d c0 81 7d 3c 9b 20 91 bd d0 f3 35 be
       0.044786718 0.015472829 -0.07086297 -0.17768788
0000c0 88 81 8a 3b 96 0c 18 bd 77 d1 9f bd 02 a5 ac 3d
       0.004226867 -0.037121378 -0.07803624 0.0842991
0000d0 c6 a9 74 3d 70 0a 92 3d 15 84 00 00 df 9d 01 00
       0.05973222 0.07130897 4.7382e-41 1.48469e-40
0000e0 fa 69 01 00 e1 e3 00 80 b7 02 01 80 03 11 01 80
       1.29853e-40 -8.1748e-41 -9.281e-41 -9.7938e-41
0000f0 da 78 00 00 78 35 00 80 5f 6b 00 80 89 e1 4e 3e
       4.3353e-41 -1.9181e-41 -3.8517e-41 0.20203222
000100 fa f7 b3 3e ea cd 04 3f f0 a2 98 3d 29 82 84 3e
       0.3515013 0.518767 0.07452953 0.25880554
000110 c6 71 b0 3e 36 aa 4f bd 51 0d be 3d bd 34 28 3e
       0.34461802 -0.050699435 0.09279884 0.16426368
000120 57 c4 92 bd 88 97 df 3b ae c4 17 3d 0c a7 14 bd
       -0.07166355 0.006823484 0.037052803 -0.03629212
000130 59 61 bd 3c 15 c2 f2 3c 18 1d 80 bd c5 4c 44 bc
       0.023117708 0.029633561 -0.06255549 -0.011981194
000140 d9 01 af bc 19 a6 c4 bc d6 b6 69 3d 5a ef 0c 3d
       -0.021363186 -0.024004983 0.05705913 0.03440795
000150 71 76 ed 3c 97 fb 9d 3d 0d d7 e9 3c 01 5e dc bc
       0.028987141 0.077140026 0.028544927 -0.026900293
000160 7c 67 20 bb a2 3b a0 bd c7 b8 00 00 0e 5c 00 00
       -0.0024475744 -0.07823874 6.6286e-41 3.3023e-41
000170 cf 2b 01 00 5e 50 01 00 e2 8a 00 80 9c 97 00 80
       1.07551e-40 1.20666e-40 -4.9822e-41 -5.4387e-41
000180 5a f9 00 00 a2 ef 00 00 04 fe 00 00 b7 07 75 3e
       8.945e-41 8.5964e-41 9.1124e-41 0.23928724
000190 eb 40 e7 3d 92 7b 49 3e ac d3 2a 3e 1d ac 68 3d
       0.11291679 0.19676045 0.16682309 0.056804765
0001a0 86 42 cf 3d 49 23 8c 3e 0f 96 1a 3e f9 f2 69 3e
       0.1012011 0.2737067 0.15096305 0.22846593
0001b0 0c 09 8c bd 37 8e d6 3b 21 89 14 3d 7b 07 00 bd
       -0.06837663 0.006547715 0.03626359 -0.031257134
0001c0 ee a4 bf 3c 61 2b f2 3c 83 c3 55 bd 00 12 03 bc
       0.023394074 0.0295617 -0.052188408 -0.007999897
0001d0 1a cb 8c bc d9 99 c3 bc 5f 6a 62 3d d6 38 6d 3c
       -0.01718669 -0.023877071 0.055277225 0.014478883
0001e0 e0 00 03 3d a3 7c a5 3d 9b a9 ac 3c cf 8b d3 bc
       0.031983256 0.08080413 0.021076968 -0.025823502
0001f0 52 33 25 3a 95 b3 a4 bd 1b 69 01 80 67 9e 00 00
       0.0006301898 -0.08042065 -1.2954e-40 5.6824e-41
000200 6c 1a 01 80 66 85 00 80 ff 0a 01 80 81 20 00 00
       -1.01314e-40 -4.7854e-41 -9.578e-41 1.166e-41
000210 2a f4 00 80 87 03 01 80 ed 14 00 80 32 52 80 3e
       -8.759e-41 -9.3101e-41 -7.507e-42 0.2506271
000220 c5 d4 00 3e 05 ba 63 3e b3 24 25 3e f0 25 23 3d
       0.12581165 0.2223893 0.16127281 0.039831102
000230 53 51 03 3e 50 12 8d 3e b6 2c 09 3e a6 e2 78 3e
       0.12823991 0.27553034 0.13395962 0.2430521

e_conv3.bias f4 [4]
000000 55 ec a5 3a d4 6f b9 3d e7 c0 e4 ba aa ce a5 bb
       0.0012658933 0.09054533 -0.0017452509 -0.0050600367

e_conv4.weight f4 [4, 4, 3, 3]
000000 70 38 2f 3e dd 19 e8 3d 86 55 65 3e e5 83 68 3d
       0.17111373 0.11333058 0.22395906 0.05676641
000010 14 e2 f6 3a 8f 86 02 3e 74 dd e6 3d 0a db 86 3d
       0.0018835687 0.12746643 0.112727076 0.06584747
000020 1f de 1f 3e 4c b2 67 3d 08 fd 85 3d c7 2a 52 3e
       0.15612076 0.05656652 0.065424025 0.20524131
000030 f2 46 4f bd 51 8e 5c bc 5f 9a de 3d dd b5 5a bd
       -0.050604768 -0.013461665 0.10869288 -0.053396095
000040 07 9d 60 bd f4 16 5e 3d f1 dd 27 3e 3e 37 e1 3d
       -0.054837253 0.05422111 0.16393258 0.10996865
000050 b1 5e 67 3e 3a af 8e 3d 6a b4 68 3b d9 62 d9 3d
       0.22594716 0.069670156 0.0035507926 0.10614557
000060 d9 55 13 3e 66 5f 82 3d fb 09 30 3e e4 a1 20 3e
       0.14388217 0.06365852 0.17191307 0.15686756
000070 4d 12 da 3d 73 19 6a 3e d9 0a 82 3d 78 0d 3f bb
       0.10648022 0.2286127 0.06349725 -0.0029152315
000080 a5 d0 f2 3d 03 38 d1 3d 18 36 3e 3d 96 3e 36 3e
       0.11856202 0.102157615 0.046438307 0.17797312
000090 9a ca 1a 3e 1b d2 e6 3d 08 4e 89 3e f1 29 4d 3d
       0.15116349 0.11270543 0.26817346 0.050088827
0000a0 b1 e5 27 3c 82 8b 1e 3e 3f 12 c5 3d 46 67 8a 3d
       0.010247634 0.15482906 0.09622621 0.06757979
0000b0 10 ea 47 3e 5a 80 5c 3d 20 89 b2 3d 13 e5 6f 3e
       0.19522882 0.053833343 0.08717561 0.23427229
0000c0 ce cc 04 bd 1b 53 d1 bc a2 fb f0 3d fd 80 86 bd
       -0.03242188 -0.025552323 0.11766745 -0.06567571
0000d0 34 a1 49 bd 68 fd bf 3d ca 77 0b 3e 6c 12 fb 3d
       -0.049226 0.09374505 0.13619915 0.12259373
0000e0 04 01 87 3e 2d 1e 3c 3d ae e5 61 3c 6f 9b 22 3e
       0.26367962 0.045927215 0.01378767 0.15879606
0000f0 02 b5 d9 3d 1f ba 8b 3d aa eb 3e 3e 15 18 08 3e
       0.106302276 0.06822609 0.18644586 0.13290437
000100 08 f0 fa 3d e2 11 8a 3e eb 64 24 3d d2 9d 9a 3c
       0.122528136 0.26966769 0.040135305 0.018874083
000110 08 0d 21 3e c6 fb d0 3d 0d a4 88 3d 93 e9 4a 3e
       0.15727627 0.10204272 0.06671915 0.19815664
000120 b0 63 2e 3e 92 6f 04 3e cc 96 79 3e 40 1f a2 3d
       0.17030215 0.12933186 0.2437393 0.07916117
000130 50 af 97 3c a7 1a 03 3e 95 c3 c7 3d 33 38 1d 3d
       0.018516213 0.12803136 0.09754101 0.038383674
000140 de a9 14 3e c5 77 af 3d a5 be bd 3d 30 30 4d 3e
       0.14517924 0.08567766 0.09264878 0.20037913
000150 e5 09 df bc 02 20 2f 3c 26 ba 00 3e 9f e4 a8 bd
       -0.027226398 0.010688784 0.1257101 -0.08246731
000160 ad c1 8a bd 67 6a a1 3d 0f 57 41 3e b3 f7 0d 3e
       -0.06775222 0.07881623 0.18880866 0.13864021
000170 f9 4e 78 3e a4 fc 92 3d cf 6d e9 bb 60 ba fe 3d
       0.24248876 0.071770936 -0.007123686 0.12437892
000180 9f 12 b8 3d c7 a6 87 3c 36 96 17 3e 5c ce 40 3e
       0.08987927 0.016559018 0.14803395 0.1882872
000190 69 2e 0c 3e 1e 3d 7e 3e 5f 23 91 3d 13 4c 68 3c
       0.13689579 0.24828002 0.070868246 0.014178294
0001a0 8d 77 e5 3d 2c 69 c1 3d d6 60 03 3d 9b 26 18 3e
       0.11204443 0.09443888 0.03207477 0.14858477
0001b0 07 5b a5 bd 6c 86 d3 3c b7 e2 37 3b 5e c2 13 bd
       -0.08074003 0.025820933 0.0028058717 -0.036074035
0001c0 44 5a 7e 3d 2e 5d b7 3c 6c 83 f7 bd c3 be 06 bd
       0.062097803 0.022383299 -0.120856136 -0.03289677
0001d0 f3 7b a3 bd c5 61 f4 3d f1 4d cf 3d 32 56 fe 3d
       -0.07982626 0.119327106 0.10122288 0.12418784
0001e0 39 7d 21 3e 7d 94 e5 3d 1a 45 d9 3d e9 29 76 3e
       0.15770425 0.112099625 0.10608883 0.24039425
0001f0 09 a1 23 3e b9 da f3 3d d5 8c a3 bd 36 44 f7 3c
       0.15979399 0.119069524 -0.07985846 0.030183893
000200 c7 19 68 3c 77 61 1d bd 97 d3 79 3d 1e 11 bd 3c
       0.014166302 -0.038423028 0.060992803 0.023079451
000210 e4 f6 11 be fe ae 2b bd 51 ab b6 bd aa 1f 66 bd
       -0.14254338 -0.041914932 -0.08919395 -0.05618254
000220 10 76 3b 3d c6 b2 03 3d 5f c7 77 bc 55 db 9c 3d
       0.04576689 0.032152914 -0.015123217 0.07659022
000230 e0 72 1d 3d 5e 9a db bd fc 50 a7 bc 93 32 8c bd
       0.03843963 -0.107228026 -0.020424359 -0.06845584

e_conv4.bias f4 [4]
000000 4b 3c d7 3d eb 3c 9a 3d a3 e6 b1 3d 29 3a 9f 3d
       0.10509547 0.075311504 0.086865686 0.07774765

e_conv5.weight f4 [4, 8, 3, 3]
000000 57 06 59 3d 42 ae 84 bc 7c 32 b4 3d 25 69 86 bc
       0.05298456 -0.016196374 0.08798692 -0.016407559
000010 8b 0d 5d bd d9 03 21 3d 11 fa 0e bc 83 f5 3f bc
       -0.053967994 0.03931031 -0.008726613 -0.011716249
000020 15 b3 8f 3d 27 ed 37 bb f6 26 a1 3c 0f e5 7f 3c
       0.07016579 -0.0028064938 0.019671898 0.015618577
000030 9a 54 9f 3a 22 35 98 b9 6d 18 aa 3c eb e6 6b bd
       0.001215595 -0.00029031286 0.0207636 -0.057593267
000040 d0 58 54 bc 2f 32 3c 3d 9a 6e 54 3d 10 ba ea bb
       -0.012960628 0.045946296 0.05186329 -0.0071632937
000050 a2 14 8b 3d b6 bc 47 bd 4b 00 2a bd 0d eb 79 3d
       0.06791045 -0.048763953 -0.041504186 0.061015178
000060 7c b9 34 bc ff 91 1e bd e7 d6 b4 3d 4a 9f 23 3d
       -0.011030551 -0.03871345 0.08830052 0.03994683
000070 78 21 9e bb a4 7f 41 3d d7 70 dc bc ed a9 39 bd
       -0.004825767 0.04724087 -0.026909275 -0.04532807
000080 a3 b4 92 3c fa 86 79 bc a6 1d e3 bc 9d 54 98 3d
       0.0179084 -0.015229935 -0.027724098 0.07438014
000090 94 1a d7 3d 54 a6 75 3d c8 c6 cf 3d 61 8c 88 3d
       0.10503116 0.059973076 0.101453364 0.066674
0000a0 c2 42 8f 3c 39 ac c1 3d b5 68 32 3d 75 57 8b 3d
       0.017487887 0.09456677 0.043556888 0.068037905
0000b0 c0 5b 27 3e d7 e4 a6 3d 33 05 96 3d 99 b2 fb 3d
       0.16343594 0.081491165 0.073252104 0.12289924
0000c0 9d dc 83 3c ed 29 1b bc 49 fc d1 3d 31 62 66 3d
       0.016096408 -0.009470445 0.10253198 0.056245986
0000d0 2d dc 5c 3d e2 12 25 3e a8 a2 d2 3d 97 04 88 3d
       0.053920913 0.16120484 0.102849305 0.066415004
0000e0 25 e5 cc 3d b7 a3 2b 3d d3 a9 b3 3c 8c 87 09 3e
       0.10004643 0.041904178 0.021931564 0.13430613
0000f0 d9 af 82 3d a2 9b 06 3d c4 0c 08 3e 99 e5 09 be
       0.063811965 0.032863267 0.1328612 -0.13466491
000100 92 73 5e 3d 90 c9 9b 3d bc 5d 3d be 75 dd cf 3c
       0.054309435 0.07606804 -0.18492788 0.025374154
000110 75 01 64 3d ba c4 cc be df 45 44 be 07 50 0b be
       0.055665452 -0.3999384 -0.19167279 -0.13604747
000120 85 99 4c 3c 71 a1 cb bb f7 a0 49 3c c2 24 fb 3d
       0.012487774 -0.0062143137 0.012306443 0.1226287
000130 b4 3d d4 3d ee ec 85 3d 16 c3 8d 3d c8 a9 b4 3d
       0.103633314 0.065393314 0.06921975 0.08821446
000140 be 70 53 3d f2 50 2a bc b7 84 f8 3d 6f b2 a3 3e
       0.05162119 -0.010395275 0.12134688 0.31972072
000150 a3 2c a8 bd ab 5c 51 3b 29 57 40 3e 1a 51 be bd
       -0.08211639 0.0031946104 0.18783249 -0.09292813
000160 22 e4 64 bd ec 96 a5 3d fe 5e 0d 3c 8a ef 69 bc
       -0.055881627 0.08085427 0.008628605 -0.014278302
000170 45 b9 c2 bb 80 95 01 3e 04 7a da 3d a0 ea 74 3d
       -0.005942496 0.12654686 0.10667804 0.05979407
000180 f8 97 94 3d 9a bb be 3d 34 f9 50 3d 5c af e9 3b
       0.07255548 0.09313126 0.05101891 0.0071315
000190 b2 77 27 39 2d e0 c3 3c 59 6d f1 3d 0a c1 de 3d
       0.00015970951 0.023910606 0.117884345 0.10876663
0001a0 71 3f 9b 3d 12 61 81 3d 56 88 b8 3d 15 ed 65 3d
       0.0758046 0.06317343 0.09010379 0.056134302
0001b0 fd 49 11 be 2d 40 5a bc 5d 73 c3 bd 2b d4 1a bc
       -0.1418838 -0.013320965 -0.09543488 -0.009449999
0001c0 87 f4 f2 3d 33 7a f5 3c be ed a2 bd 01 90 63 3d
       0.11863046 0.029965496 -0.07955502 0.055557255
0001d0 84 fa 08 bd 9b 57 12 be 5c 35 c2 bb 39 3e bf bd
       -0.033442035 -0.14291231 -0.005926771 -0.0933804
0001e0 95 a6 5b bb 26 4d fd 3d 41 58 cd 3c d5 4f 79 bd
       -0.0033516039 0.123682305 0.025066497 -0.06086715
0001f0 70 ee 89 3d 93 6b 19 bd 42 be 23 be 23 81 dc bc
       0.067349315 -0.037456106 -0.15990546 -0.026917046
000200 1a b7 c0 bd ce 74 16 bc 4d a4 f1 3d df 4d 26 3d
       -0.09409924 -0.009183122 0.11798916 0.040601607
000210 f0 f0 7f bd 67 8b 86 3d e3 64 a0 bc b3 ab 2b 3c
       -0.062485635 0.06569558 -0.019579357 0.010477948
000220 07 03 ff 3c d1 a9 58 3e 11 8a 7f 3d 56 24 43 bc
       0.031129373 0.2115853 0.06238753 -0.011910519
000230 05 6b e1 3d 55 8c 7b 3e a2 bd b7 3d 57 76 ff 3d
       0.110067405 0.24565251 0.089717165 0.124737434
000240 33 fa b0 3d 0a 80 1c 3d f5 f3 56 3d d7 55 81 3b
       0.08641472 0.038208045 0.05247875 0.0039470005
000250 48 f3 fc bc 96 01 aa 3c 48 61 7d bb 39 48 34 bd
       -0.030877724 0.02075271 -0.003866272 -0.04401419
000260 a6 59 2b 3d f2 f5 34 3d 42 ec 17 3d b8 54 12 3d
       0.041833542 0.044179864 0.037090547 0.035725325
000270 a4 09 74 3c 51 54 98 3c ba 6b 61 3d bc 23 b9 bc
       0.014894877 0.018594893 0.055034377 -0.022600047
000280 10 2c ae bc c7 41 15 38 1e 3e 82 3d 2c 5d 28 3c
       -0.021261245 3.558563e-05 0.06359504 0.01027612
000290 f0 a2 5a 3d b7 c0 c2 3b c5 c1 ba bc dd f3 99 3c
       0.053378046 0.0059433836 -0.022797475 0.01879304
0002a0 44 4e fd bc 81 a0 f5 bc b2 71 7a 3d a9 45 85 3d
       -0.030921109 -0.02998376 0.061143585 0.06507427
0002b0 06 10 98 3b c2 c3 03 3d dc 9d 63 bc f3 e6 bd bc
       0.004640582 0.03216911 -0.013892617 -0.023181414
0002c0 a5 9f 91 3b 48 50 4f bc 68 c2 fb bc f7 a4 29 3d
       0.00444408 -0.012653418 -0.030732349 0.04141709
0002d0 fe 0f c5 3d e7 08 74 3d d1 e3 b1 3d 47 68 a5 3d
       0.09622191 0.059578802 0.08686031 0.0807653
0002e0 f6 3f 2e 3b 03 06 2c 3d 13 02 8c 3d f6 b8 8c 3d
       0.0026588417 0.04199792 0.06836333 0.06871216
0002f0 04 b9 cc 3d c7 31 aa 3d 51 52 25 3d 87 98 0f 3e
       0.099962264 0.083102755 0.040361706 0.14023028
000300 84 97 4d 3d 57 d4 13 38 06 70 74 3d ae ee 83 3d
       0.050193325 3.5245288e-05 0.059677146 0.06442009
000310 b7 99 c5 3c 28 5f 08 3e af 58 1f 3e a8 ef be 3d
       0.024121149 0.13317549 0.15561174 0.093230546
000320 cd 65 d2 3d e2 29 87 3d 8d 6f 0c 3d 10 00 a9 3d
       0.10273323 0.065997854 0.03428607 0.08251965
000330 3d 8c 7d 3d 32 07 f5 3c 00 a7 d2 3d ae b5 2f be
       0.06190132 0.029910658 0.10285759 -0.17159149
000340 63 5c 1a 3d 72 f0 6a 3d 14 e5 4f be 3f 72 c3 3c
       0.037685763 0.057358213 -0.2030223 0.023858188
000350 3a 86 57 3d 51 10 c7 be 42 ff 20 be 68 1e dc bd
       0.052618243 -0.38879636 -0.15722373 -0.10747987
000360 d9 9d df 3c 35 91 a7 3c a6 9a c4 3d b5 2a 6c 3d
       0.027296947 0.020454982 0.09599809 0.057657916
000370 ef 7f 1a 3c 51 fc 08 3d be a7 b4 3d 16 5b 0d 3d
       0.009429916 0.033443753 0.08821057 0.034510694
000380 a1 24 78 3c ae fb 93 3d 03 5a 37 3d bf e5 e3 3d
       0.015145452 0.072257385 0.044763576 0.11127805
000390 69 17 be 3d f2 a4 df 3c a5 5f 66 3d 67 3d 10 3e
       0.09281809 0.027300332 0.056243557 0.14085923
0003a0 a3 ed 3c 3d ba e8 22 3d 50 d8 c9 3c ab ee 9e 3c
       0.046125066 0.039772727 0.024639279 0.019400915
0003b0 77 1f bd 3d 7a f0 6e 3d f2 19 05 3c 93 a4 e7 3c
       0.09234517 0.058334805 0.008123862 0.028276717
0003c0 f4 5b b1 3d 19 15 04 3d 11 b9 21 3c c3 31 20 3d
       0.08660117 0.032246683 0.009870783 0.039109956
0003d0 3c 26 dd 3c fa ef d5 3d 50 23 8a 3d 3d fa 51 3c
       0.02699577 0.104461625 0.067450166 0.012816009
0003e0 5f 73 0f 3d 9f 3f c8 3d 12 94 18 3d 86 9f 7c 3c
       0.035022136 0.0977776 0.037250586 0.015418893
0003f0 17 cb bf 3d 25 a6 0e 3e 5a 89 5c 3e 28 63 b2 3d
       0.09364908 0.13930567 0.2153677 0.08710319

e_conv5.bias f4 [4]
000000 4f 95 e6 3d 03 47 20 be 5f a6 96 3d c7 2a 23 3d
       0.11258947 -0.15652089 0.073559515 0.039835718

e_conv6.weight f4 [4, 8, 3, 3]
000000 fe 45 74 3d 43 f8 31 3e 03 87 3b 3e 5f e7 a3 bd
       0.059637062 0.1737986 0.18313222 -0.08003115
000010 bb 29 43 3b 8e 60 a2 3c b1 72 dd bd bd de 00 be
       0.0029779512 0.019821431 -0.10812891 -0.12584968
000020 e3 d1 2c be 8c d1 4a 3e b5 1b 42 3e 81 02 47 3e
       -0.1687694 0.19806498 0.18955882 0.19434549
000030 10 cd 86 3d 63 52 22 3d fe 39 f8 b9 55 ac 5d bd
       0.06582081 0.03962935 -0.00047345454 -0.054119427
000040 b7 04 fe bd 43 14 58 be 59 7b 00 80 ee a0 00 80
       -0.12403243 -0.21101479 -4.4249e-41 -5.773e-41
000050 7f 28 00 00 a5 8d 00 80 21 98 00 80 6c bb 00 80
       1.4527e-41 -5.0812e-41 -5.4574e-41 -6.7234e-41
000060 1e 3e 00 80 84 2c 00 80 ee 77 00 00 a3 5b 7b bb
       -2.2283e-41 -1.5969e-41 4.3023e-41 -0.003835418
000070 59 cb ea bc 09 61 ec bd 22 1c cc 3c 28 53 a7 3d
       -0.028661417 -0.115419455 0.024915759 0.08170158
000080 ea 32 46 3d ec 65 16 3b 1f 34 12 3d e7 39 00 3e
       0.0483884 0.0022948934 0.035694238 0.12522088
000090 e7 87 88 3d 0b 47 c4 3c 5b 67 9f 3c 0f 52 aa 3d
       0.06666546 0.023959657 0.019458463 0.08316433
0000a0 88 ff ca 3c 2a 84 be 3c b4 2c 57 3e bd a1 1f 3e
       0.02478005 0.02325638 0.21013147 0.15589042
0000b0 83 f1 1a 3e 27 eb c1 bd 76 bf ce bd ab ca b1 bd
       0.15131192 -0.0946868 -0.10095112 -0.08681234
0000c0 41 14 39 be 4f 45 2c be 5e 88 de bd d6 fb 4f be
       -0.18074133 -0.16823314 -0.10865854 -0.20310912
0000d0 61 fb 3d be 40 90 1f bc 3f 4d a4 3d af 85 05 3d
       -0.18552925 -0.009738982 0.08022546 0.032598194
0000e0 69 65 0d 3d ea 8f 9b 3d cf 32 d9 3a 7f e0 32 3d
       0.03452054 0.07595809 0.0016570928 0.043671127
0000f0 0a 12 4f 3e a5 8c fc 3d 79 b9 0f 3e fe bf b5 bc
       0.20221725 0.12331513 0.14035596 -0.022186276
000100 cc 66 98 bb ae ab fb bc df 5a 2b bd 14 1b e9 ba
       -0.004650926 -0.030721512 -0.04183471 -0.0017784559
000110 82 70 fc 3b 92 72 9e bd cf 30 b1 bc ad 40 85 3c
       0.0077038417 -0.07736696 -0.021629719 0.016266191
000120 31 ad 86 3a 67 89 85 3d d5 c0 83 3d 0e 31 fa bb
       0.0010275004 0.06520348 0.06433264 -0.0076352423
000130 c9 d4 39 3d 2c 9b d7 3c a1 ea 28 bb 78 89 a8 3c
       0.045368943 0.026319109 -0.0025774615 0.020573363
000140 3e 6e d2 bc 04 95 11 3c ea bc d3 3c c7 f8 15 bc
       -0.025687333 0.008885626 0.025846917 -0.009153551
000150 4c 4e de 3c b6 f1 88 3c c7 b2 4b bd 73 0c 77 3c
       0.027136944 0.01671682 -0.049731042 0.015078652
000160 33 f6 14 bd 8d f8 1b be c7 d1 01 00 67 65 01 00
       -0.036367606 -0.15231533 1.6709e-40 1.28212e-40
000170 a5 4b 01 00 46 ea 00 00 ce ba 01 00 df b5 01 00
       1.18972e-40 8.4041e-41 1.58848e-40 1.57079e-40
000180 fd 6b 01 00 18 2b 01 00 6e 92 01 00 fc 16 b7 3c
       1.30574e-40 1.07295e-40 1.44365e-40 0.022349827
000190 6f 24 28 3d 43 7a 7f 3b 76 e5 53 bd 49 e4 db 3b
       0.04105037 0.0038982786 -0.051732503 0.0067105633
0001a0 c1 47 48 3c be ae 95 bd 05 7b 91 3c 67 21 59 3d
       0.012224139 -0.0730872 0.017758856 0.05301037
0001b0 56 05 ba b9 d6 ac e6 bc d5 be c2 bb e3 f2 8c bc
       -0.0003548066 -0.028158586 -0.005943159 -0.017205661
0001c0 e2 eb d2 3c c6 08 ef 3c b6 51 4b 3d 68 e4 b2 3d
       0.025747243 0.029178988 0.049638472 0.08734971
0001d0 0c e0 27 3e 1e 70 cd 3d d8 e6 20 3e ff be 04 3e
       0.16394061 0.1003115 0.1571306 0.12963484
0001e0 91 4a ce 3b 11 be 6a 3d f6 8a 88 3c 6b af 30 bd
       0.00629551 0.057310168 0.016667824 -0.04313604
0001f0 3c 30 a7 3c c8 94 6c ba 66 28 05 bc c3 1b 19 3c
       0.020408742 -0.00090248557 -0.0081273075 0.009344998
000200 05 96 26 bc a4 5e 45 bb 58 b6 2e 3b 97 11 b0 3c
       -0.010167603 -0.0030116225 0.0026658978 0.021492762
000210 64 11 4c 3d c6 81 78 3d 4e 2d 0d 3e 32 bc 57 bd
       0.049821272 0.060670637 0.13786814 -0.05266971
000220 c4 13 d7 bc d1 8c 7d bc fb 4b 99 bd 27 48 ba bc
       -0.026254542 -0.015475468 -0.07485195 -0.022739483
000230 ef b1 84 3c 6f 8e da bd 5d e9 f7 bc 20 a3 16 3d
       0.016198127 -0.10671698 -0.030262643 0.036776662
000240 a2 92 93 be e7 23 15 be ef d5 c6 3b ef d5 33 be
       -0.2882281 -0.14564477 0.0060679833 -0.17562078
000250 67 6d 90 bc 86 36 18 3e aa 8c cb bd 41 00 39 3d
       -0.017630292 0.14864549 -0.09938939 0.045166258
000260 af 05 3f 3e 84 0a 79 be 53 a7 f9 bd 1e 6c 35 3d
       0.18654512 -0.24320418 -0.12190118 0.04429256
000270 f7 67 c9 bc 3e 4f ba 3d 60 7d 60 3e a7 ba c5 3d
       -0.024585707 0.090971455 0.21922827 0.09654742
000280 55 96 46 3e a6 5f 91 3e 93 07 01 80 aa 04 01 80
       0.19393285 0.28393286 -9.4553e-41 -9.3509e-41
000290 f5 2e 00 80 ca 20 01 80 46 32 00 80 41 24 00 00
       -1.6845e-41 -1.03598e-40 -1.8035e-41 1.3005e-41
0002a0 67 28 00 00 16 33 01 80 81 05 01 80 0e f1 17 3e
       1.4494e-41 -1.10162e-40 -9.381e-41 0.14838049
0002b0 af ab 6b 3d a4 99 ba bb a9 ee 03 3d 5f 20 c5 3c
       0.057536777 -0.005694585 0.032210026 0.024063287
0002c0 9b 76 e8 bc d9 b1 c9 bd 5a cd ca bd b3 7e ac bd
       -0.028376868 -0.09848375 -0.09902449 -0.084226035
0002d0 45 98 20 3e e9 74 2c 3d 99 61 30 3b df 0e 06 3e
       0.15683086 0.04210368 0.0026913641 0.1309161
0002e0 78 33 33 3d 79 6f d6 3b bb d7 ad 3d bc 9b 17 bc
       0.043750256 0.0065440503 0.08488413 -0.009253439
0002f0 e6 a1 13 3d 90 99 a0 bd 75 f8 de bc ab b5 3d 3e
       0.03604307 -0.0784179 -0.027218083 0.18526332
000300 26 25 d6 bd c0 12 18 bd d9 af 21 3e cf 40 43 be
       -0.10456304 -0.037127256 0.15789737 -0.19067691
000310 46 78 17 be b6 8e 7b 3d c3 92 4d 3e 55 e4 ce 3d
       -0.14791974 0.061415397 0.20075516 0.10102145
000320 e4 9d a8 3c 80 1b 18 3e 5e 99 17 3d c8 0c 55 3d
       0.0205831 0.1485424 0.037011497 0.052014142
000330 24 5c 04 3e bf a3 7e ba 0c e9 1f bc fc 0e 5a 3d
       0.12925774 -0.0009713731 -0.009760153 0.053236946
000340 92 60 ed 3c f2 f1 5a ba ab 3a 88 bc 67 5f 57 bc
       0.028976712 -0.00083520927 -0.016629538 -0.013145304
000350 1b 54 5b bc f7 38 d4 bd 40 d2 99 bd 78 2d 31 bd
       -0.0133867515 -0.10362428 -0.07510805 -0.043256253
000360 2f bf 29 bc bd aa 22 3d 9d 9e f9 3c a6 40 d8 3c
       -0.010360523 0.03971361 0.03047114 0.026398014
000370 7f 02 9c 3d b5 1b 6e 3d 56 cd d5 3c 1e 39 8d 3d
       0.076176636 0.058131892 0.026098888 0.0689566
000380 6e db 1f 3d ba d2 47 bd e7 dd 4a bc 44 cd 70 bc
       0.039027624 -0.04878495 -0.012382007 -0.014697377
000390 20 d7 13 3c 87 5a 74 3c 0d 29 2d bc 7b d4 54 ba
       0.009023458 0.0149141615 -0.010568869 -0.000811882
0003a0 e0 df f5 bc de e1 bf bd a9 59 01 00 5a 25 01 00
       -0.030013978 -0.093692526 1.24e-40 1.05235e-40
0003b0 e7 7d 00 00 40 1f 01 00 08 f8 00 00 d6 80 00 00
       4.5165e-41 1.03046e-40 8.8977e-41 4.6218e-41
0003c0 ba 5b 01 00 e0 2f 01 00 79 02 01 00 e9 93 bf 3c
       1.24741e-40 1.0901e-40 9.2723e-41 0.023385959
0003d0 a6 81 62 bd ec ac d3 bd 9a 74 d5 bb 37 c8 39 bd
       -0.055299424 -0.103357166 -0.006514144 -0.045356955
0003e0 9c e7 d0 bd 8e 2c 7c bc 0f a5 17 3c 9f 9f 6d bc
       -0.10200426 -0.015391482 0.009255662 -0.014503389
0003f0 1e eb 70 3d ce 26 2f 3d 86 56 2b 3e 97 37 92 bd
       0.058817975 0.042761616 0.16732225 -0.07139509

e_conv6.bias f4 [4]
000000 49 87 eb 3d c3 ff f2 3d d2 c5 15 3d fb 75 9f bc
       0.11500413 0.11865189 0.03656561 -0.019465437

e_conv7.weight f4 [1, 8, 3, 3]
000000 3c aa b4 bd 99 71 c7 bd 2e 46 79 bd 26 b2 e2 bd
       -0.08821532 -0.09738464 -0.060857944 -0.11069135
000010 c1 80 f4 bd 90 6f a9 bd ac 84 e4 bd 92 cd ef bd
       -0.1193862 -0.08273232 -0.11158118 -0.11709131
000020 9f eb a1 bd 02 93 d0 3b 74 2d e7 bb df ad 30 3d
       -0.07906269 0.006365181 -0.007054979 0.043134566
000030 ae c0 eb bc fb 8b 3d 3d eb 29 e6 bc e4 45 07 be
       -0.0287784 0.046276074 -0.02809616 -0.13210255
000040 9a 54 28 3d b3 c2 39 3d a6 0c 55 be 9a a4 11 be
       0.041096307 0.045351695 -0.20805606 -0.14222947
000050 be d7 c1 bd 32 72 5c be b6 6e 16 be 15 43 1c be
       -0.09464978 -0.21527937 -0.1469067 -0.15259965
000060 ba 69 96 be 0f fe 4b be b5 2f 5a be 40 3e 2b bc
       -0.29377538 -0.19921134 -0.21307261 -0.010451853
000070 62 fe f9 3b ef ed 7c bc 9e c8 34 bc 83 5b 6e bc
       0.0076292017 -0.015437587 -0.011034159 -0.014548185
000080 b4 92 c7 bc c1 d6 2a 3c 5d 1e 01 bd 4c 47 33 bd
       -0.024361946 0.010427178 -0.031523097 -0.043769166
000090 60 29 25 bd 3e 04 fc bd 06 e3 4a be 7c 84 90 3d
       -0.04032266 -0.12305497 -0.19813165 0.070565194
0000a0 5b df c0 bc 72 b9 9b bd 0e e2 84 3e 99 c9 29 3e
       -0.023544004 -0.0760373 0.25953716 0.1658081
0000b0 7d 12 e5 3d d2 31 ba bc a3 06 d7 3d ab 61 95 3d
       0.11185167 -0.022728834 0.10499313 0.07294019
0000c0 59 bd b4 3c 0c 0b d3 3d 00 d8 b4 3d de af 0e 3e
       0.022062944 0.103048414 0.08830261 0.13934276
0000d0 e6 c4 6c 3e 65 6c 6b 3e 8b 0d 92 3e 74 2e 89 3d
       0.23121986 0.22990568 0.28525957 0.06698313
0000e0 13 9e 44 bd dd fb 49 3e 3c f9 a2 bc cb ff dd bd
       -0.048002314 0.19724984 -0.019894235 -0.10839804
0000f0 4d 3d 2b 3e 5c 23 b5 bc 87 cd fa bd bc 92 2a 3e
       0.16722603 -0.022111587 -0.122462325 0.16657537
000100 30 15 3a 3e fb 23 d0 3e 9f 1e 21 3e f6 81 9c 3d
       0.18172145 0.4065245 0.15734337 0.076419756
000110 78 b1 0a 3e f1 22 99 3d 35 26 09 3e 6c 14 25 3e
       0.13544261 0.07477368 0.13393481 0.16121072

model.0.weight f4 [16, 1, 3, 3]
000000 60 75 33 bc 9d 42 83 bc dc 35 f2 bc 85 e2 7e bc
       -0.010953277 -0.016022975 -0.029566698 -0.015556936
000010 db 1c 60 bc 65 ad a0 bb 38 03 aa 3b a9 ac f1 bb
       -0.013678755 -0.0049034827 0.005188372 -0.007375319
000020 aa 40 eb 3c 2b bf c5 bc f5 53 c4 3c dc a6 18 3d
       0.028717358 -0.024139008 0.023965815 0.037268505
000030 a0 a1 b0 bb e5 15 f9 3c 99 7e 90 bc 40 f4 86 3c
       -0.005390361 0.030405948 -0.017638491 0.01647389
000040 5c ea ee 3c 2a 8e dd 3b 0f 19 c1 3c 27 79 8e 3c
       0.029164486 0.006761332 0.02357152 0.017391754
000050 65 ed 98 3b c0 00 4d bd 22 e8 52 3c bd 90 64 bc
       0.0046669715 -0.050049543 0.012872728 -0.013950524
000060 ee 98 7f bd 42 a5 c0 bc f6 a0 02 3c aa 00 ba 3b
       -0.062401704 -0.023516301 0.007972946 0.0056763487
000070 0c 4b ef bb 14 f2 0f bc 54 f3 79 3b ac f0 15 3c
       -0.0073026475 -0.008785743 0.003813942 0.009151619
000080 86 b0 88 3c 79 27 70 3c 04 19 84 bb 5e da 87 bc
       0.016685735 0.0146578485 -0.0040313024 -0.016583618
000090 ca a6 17 bc 5c 72 64 bb 82 23 87 bc ea a6 b5 bb
       -0.009256074 -0.0034858203 -0.016496424 -0.0055435793
0000a0 f9 ea 8c bb 6e 08 92 bc e4 ce 8e bc f9 fc fc bc
       -0.004300472 -0.017826285 -0.017432638 -0.030882346
0000b0 6f ef 3f bc 33 38 76 bc 8c ba d7 bc 61 a7 c0 bc
       -0.0117148 -0.015028047 -0.02633407 -0.023517312
0000c0 dc 71 ae 3b 8b 8f ca ba 24 42 61 bb 46 95 ba 3c
       0.0053236317 -0.0015454156 -0.0034371698 0.022776257
0000d0 53 48 70 bb 0b 79 fe 3b fe e6 28 3d 00 b9 18 bd
       -0.0036664202 0.0077658943 0.041235916 -0.037285805
0000e0 b2 5b bc 3c 69 82 17 3c 0f fe d0 3c 57 89 03 bd
       0.022992942 0.009247401 0.02551177 -0.0321134
0000f0 f0 91 c9 bc 72 e9 69 bb e9 21 20 3d 29 26 b3 3b
       -0.024605721 -0.0035692123 0.03909484 0.0054671955
000100 ab 72 d0 bc 5f b4 82 bb 19 a6 c9 3c b8 05 34 3d
       -0.025445303 -0.003988787 0.024615334 0.043950766
000110 a1 0c 50 3b ba 63 87 bc f8 78 a7 3c 00 4d a6 bc
       0.0031745809 -0.016527046 0.020443425 -0.020300388
000120 c0 ec eb 3c 6f d6 05 bc a2 32 8d bc 06 87 ad bc
       0.028799415 -0.008168801 -0.017236058 -0.021182548
000130 4a ed 6f bc 01 be e2 bc 9c 89 6d 3a 0f a2 fa bc
       -0.014643976 -0.027678492 0.0009061338 -0.030594854
000140 62 3b e3 3c c1 a6 26 bb af 42 1e bc 04 e2 4d 3c
       0.027738277 -0.0025428983 -0.009659453 0.012566093
000150 8f 22 b2 3c e7 83 2c bd fe 3a 8c bc 7b c6 f0 bc
       0.021744994 -0.04211798 -0.017117973 -0.029391518
000160 55 9a 4e bb 45 d1 54 bc c6 93 92 bc 82 ba 34 bc
       -0.0031525095 -0.012989347 -0.01789273 -0.011030795
000170 c7 d0 58 3c b2 f9 09 bc 4a 56 a9 3b d7 df 47 3d
       0.01323337 -0.008421348 0.005167757 0.048797455
000180 79 b0 cb 39 ca 98 c2 3b c8 6a 92 bb e2 d8 35 3c
       0.0003885066 0.005938624 -0.0044682957 0.011099072
000190 e5 89 d2 bc d8 33 7e 3b 79 ad 20 3d af e8 a6 3c
       -0.025700519 0.0038788226 0.039227936 0.020374624
0001a0 d7 29 af 3c cb e9 b1 3c ca 6c b2 bc 3e 7c ff bc
       0.021382255 0.021717926 -0.02178039 -0.031187173
0001b0 29 52 f1 bb ea c8 60 3c 57 6f 6a 3c 01 3b 78 3c
       -0.0073645306 0.013719777 0.014308772 0.015150786
0001c0 b4 d6 27 3c 04 25 3d bc c1 eb 8a 3c 5b c6 5e 3d
       0.01024406 -0.01154447 0.01695812 0.054388385
0001d0 e6 2a e8 bc 81 ab 0f bd 11 01 0d 3d 09 b1 8e bc
       -0.028340768 -0.03507567 0.034424845 -0.017418401
0001e0 81 d7 a4 3b 9b 29 0a 3d 50 84 e0 bc c6 5b d4 3c
       0.005030573 0.033731084 -0.027406842 0.025922667
0001f0 07 82 88 bb f7 5d 91 3c 5b 9f d5 3c b0 6a 96 bc
       -0.004165891 0.017745001 0.026076963 -0.01836142
000200 27 de 66 3d e5 34 a1 bc 90 ef 35 3c 89 0d e9 bc
       0.056364205 -0.019678542 0.011104479 -0.028448837
000210 08 7a 90 bc b8 19 ac 3c 90 85 db 3b 45 d7 11 bc
       -0.017636314 0.021008357 0.0066992715 -0.008901422
000220 34 c3 64 3d 22 f6 2b bc 21 a5 1b bd 94 46 ba bb
       0.055850223 -0.010495694 -0.037999276 -0.005684683
000230 f6 b5 1a 3d d8 ac 6e 3c e1 0d aa 3a 1d f0 e6 ba
       0.037771188 0.014567576 0.0012974107 -0.0017619167

model.0.bias f4 [16]
000000 06 31 13 be 6b 84 44 be 22 49 9b be 03 03 8f 3e
       -0.1437417 -0.19191138 -0.30329233 0.27931985
000010 e3 3e 83 3e f8 07 63 be f3 60 90 be 94 62 d2 3d
       0.25633916 -0.22171009 -0.28198966 0.102727085
000020 c6 f7 3d be 9c f4 e6 3d 4b b5 9a be 1c 07 a0 bd
       -0.1855155 0.11277124 -0.3021644 -0.07813856
000030 93 18 62 be 9a ce 71 3e 70 b7 f5 3c 4c 32 e5 bd
       -0.22079687 0.23613968 0.029994696 -0.11191234

model.2.weight f4 [16]
000000 00 00 80 3f 00 00 80 3f 00 00 80 3f 00 00 80 3f
       1.0 1.0 1.0 1.0
000010 00 00 80 3f 00 00 80 3f 00 00 80 3f 00 00 80 3f
       1.0 1.0 1.0 1.0
000020 00 00 80 3f 00 00 80 3f 00 00 80 3f 00 00 80 3f
       1.0 1.0 1.0 1.0
000030 00 00 80 3f 00 00 80 3f 00 00 80 3f 00 00 80 3f
       1.0 1.0 1.0 1.0

model.2.bias f4 [16]
000000 00 00 00 00 00 00 00 00 00 00 00 00 00 00 00 00
       0.0 0.0 0.0 0.0
000010 00 00 00 00 00 00 00 00 00 00 00 00 00 00 00 00
       0.0 0.0 0.0 0.0
000020 00 00 00 00 00 00 00 00 00 00 00 00 00 00 00 00
       0.0 0.0 0.0 0.0
000030 00 00 00 00 00 00 00 00 00 00 00 00 00 00 00 00
       0.0 0.0 0.0 0.0

TF.self_attn.in_proj_weight f4 [48, 16]
000000 38 64 2f 3d 61 b8 09 be 96 82 0b be 0a b9 66 3e
       0.042820185 -0.13449241 -0.13624033 0.22531524
000010 c9 03 6a be 00 b5 26 3d 4c 1e dd 3d be 90 3f 3e
       -0.22853006 0.04069996 0.10796794 0.18707559
000020 ca 09 2c 3e 50 c2 0b bd ae aa 82 be a0 b5 60 bd
       0.16800609 -0.034120858 -0.25520843 -0.05486071
000030 fe 1e 7f 3e 20 2b 8d bd ed b5 88 3e 3b 4d 96 3e
       0.24914166 -0.06892991 0.26701298 0.29355797
000040 64 5e 98 3d 73 39 9b 3e c4 c9 06 3e 48 c7 18 3e
       0.074398786 0.30317268 0.13162905 0.1491977
000050 72 a3 7e 3e bc 96 52 be 40 85 3d bd 05 45 91 be
       0.24867037 -0.20565313 -0.046269655 -0.2837297
000060 ca e8 02 be ac 49 65 be 90 83 70 be 44 8f 2c 3e
       -0.12784114 -0.22391385 -0.23487687 0.16851526
000070 f0 96 37 3e 00 9a da bd 7f 27 99 be f0 ec c7 3c
       0.17928672 -0.106739044 -0.29912946 0.024404973
000080 f4 22 6b bd d8 b5 49 bd 86 43 77 be 11 cf 8b 3e
       -0.05740638 -0.049245685 -0.24146852 0.27306417
000090 4a 0e 80 be 2c 13 f6 3d 72 ab 5d be d8 3a ce 3d
       -0.25010902 0.120153755 -0.21647432 0.10069817
0000a0 2e a5 95 bd d0 30 70 bd 7f e2 82 3e b5 3c 84 3e
       -0.07306896 -0.0586403 0.25563428 0.25827566
0000b0 a0 33 78 be ea 69 2f be f6 be 82 be 72 d1 01 be
       -0.24238443 -0.17130247 -0.25536317 -0.12677553
0000c0 c0 3f ad 3c 18 42 22 3e 6c 21 af 3d d6 af 41 be
       0.021148562 0.15845525 0.085512966 -0.18914732
0000d0 1e a9 e5 bd 1f ab 80 be 6a 14 59 3e 3a 4e 47 3e
       -0.11213897 -0.25130555 0.21199194 0.19463435
0000e0 f2 8e 78 3e be 70 29 be 0c 1f a8 bd a8 b3 25 3e
       0.2427328 -0.16546914 -0.08209047 0.16181815
0000f0 28 d8 4a 3d a4 09 34 3e 66 12 8a be ab e6 7f be
       0.04952255 0.17581803 -0.26967162 -0.24990337
000100 5e 08 1f 3e 21 a8 9b be 50 6e f0 3c 98 15 e7 bd
       0.15530536 -0.3040171 0.029349476 -0.112834156
000110 80 83 1e 3e 3f 4c 80 3e f8 21 94 bd 6c 68 a7 3d
       0.15479851 0.2505817 -0.072330415 0.08174214
000120 4a 97 1f 3e c8 33 cd bd 50 23 cc 3d e2 da 09 be
       0.15585056 -0.10019642 0.09967673 -0.13462403
000130 06 c2 4f 3e fe 52 09 be 00 0d 85 3c 08 0d 38 bd
       0.20288858 -0.13410565 0.01624155 -0.044934303
000140 fe 47 9b be c6 89 7c 3e c6 83 28 3e 90 f4 03 bd
       -0.30328363 0.24661931 0.16456518 -0.032215655
000150 12 93 16 3e 72 11 73 3e 21 42 99 3e 94 e2 35 3e
       0.1470454 0.23737124 0.29933265 0.17762214
000160 90 59 84 3c e9 dc 98 be f6 d9 49 3e 50 ba e5 bc
       0.016155988 -0.2985604 0.19712052 -0.028042942
000170 10 48 61 bd 15 8f 95 be 46 5b 40 be 95 c4 8c 3e
       -0.055000365 -0.29210725 -0.18784818 0.2749373
000180 50 d8 97 bd 78 e1 3c 3e 80 6c 0d bd 77 44 31 be
       -0.07414305 0.18445385 -0.0345273 -0.17311274
000190 1a 96 1d be 3c 32 8c 3d e8 35 dd 3d a8 47 53 bd
       -0.1538929 0.06845519 0.108012974 -0.05158201
0001a0 a0 83 9a 3d 57 fa 8a 3e 2c 54 09 3e 86 69 5f be
       0.07544637 0.2714412 0.13411015 -0.21817598
0001b0 90 b9 42 3d 00 90 c6 3a 58 bc 09 bd 80 80 f6 3d
       0.047540247 0.0015149117 -0.033626884 0.12036228
0001c0 86 7d 0f 3e b1 90 8b 3e 64 cf e9 3d 82 a2 70 3e
       0.14012727 0.27258828 0.1141651 0.23499492
0001d0 e6 6d dd bd 40 69 8d bc 90 ac f4 3d a8 0b 27 3e
       -0.10811977 -0.017262101 0.11946976 0.1631304
0001e0 12 f2 79 be 8f 3a 91 3e 5a 3f d2 bd 07 52 0e be
       -0.24408749 0.2836499 -0.102659896 -0.13898478
0001f0 80 d8 79 3b ed e1 89 3e 83 29 05 be aa 6a 5b 3e
       0.0038123429 0.2693018 -0.13004117 0.21427408
000200 40 ac da bc ca d5 83 be 2f 18 8f 3e 44 be 97 3d
       -0.026693463 -0.25749046 0.27948138 0.07409337
000210 f2 11 f9 bd 44 20 e4 3d c0 e7 0b 3e f0 d3 42 be
       -0.12161626 0.11138967 0.13662624 -0.1902616
000220 4e 25 ac bd dc 75 f8 3d 48 2c fa bd 50 46 34 3d
       -0.08405553 0.12131855 -0.12215477 0.044012368
000230 c0 f6 da bc 2c fc da 3d 6a 66 1e 3e ee fb 67 be
       -0.026728988 0.10692629 0.15468755 -0.22654697
000240 14 c1 5f be 80 2b 8a bc 7b ac 77 be 56 92 41 3e
       -0.21850997 -0.016866446 -0.2418689 0.18903479
000250 72 48 02 be c0 a7 cc 3b 85 86 97 3e 74 a7 83 be
       -0.12722948 0.0062455833 0.29594818 -0.25713694
000260 84 8e 89 3d eb d3 28 be 76 8b 08 3e ec 90 26 3e
       0.06716636 -0.1648709 0.1333445 0.16266221
000270 ba 2e ea bd 12 6a 71 3e b0 c2 3b 3d 71 44 98 3e
       -0.11434694 0.23575619 0.045839965 0.29739717
000280 0d 72 8a be 78 8f 43 3e aa 3d 43 3e a3 41 8d be
       -0.2704014 0.19097698 0.19066492 -0.2758914
000290 70 41 77 be bf d8 9b 3e 4b 12 70 be 40 04 f9 bc
       -0.24146056 0.30438802 -0.23444478 -0.030397534
0002a0 a8 60 11 3d b2 a5 7b 3e d2 41 4a 3e 0e d4 7f 3e
       0.03549257 0.24574926 0.19751671 0.24983236
0002b0 ca 77 96 be ba 91 6b 3e ac 4d 39 be ae a7 27 3e
       -0.29388267 0.23004809 -0.18096036 0.16372558
0002c0 58 b1 12 bd a8 43 14 bd f0 09 0c bd 18 96 d6 3d
       -0.03581366 -0.036197335 -0.034189165 0.10477847
0002d0 e8 29 9d bd 80 89 72 3d ed 80 5f be c0 48 30 3c
       -0.076740086 0.05921316 -0.21826525 0.010759532
0002e0 ed 77 8c 3e 2c 67 44 3e b0 16 af 3c 8c b9 af 3d
       0.27435246 0.19179982 0.021373123 0.08580312
0002f0 0e 6e 4a 3e 62 f7 3b be be 54 60 3e 80 0c 5a 3d
       0.19768545 -0.18356088 0.21907327 0.053234577
000300 fe 88 76 be b0 ad 92 bd d6 4a 2b 3e 00 3b ea bc
       -0.24075696 -0.071620345 0.16727766 -0.028592587
000310 c7 ca 20 be e6 2d fb bd 52 6a 7b 3e d8 a8 87 3d
       -0.15702353 -0.12264614 0.24552277 0.06624001
000320 40 dd c4 bb 40 c7 07 3d a6 9c 54 be 98 fe 28 3d
       -0.0060078204 0.033149004 -0.20762882 0.041258425
000330 6e 9a f0 bd a7 c9 96 3e 18 c3 3b 3e 94 56 fc bd
       -0.11748205 0.29450724 0.18336141 -0.12321201
000340 f4 b9 d2 3d 9e bd 7e 3e b9 d5 8d 3e be 4c 57 3e
       0.10289374 0.2487702 0.2770212 0.21025369
000350 be f2 6a be 26 85 66 be 14 d4 8d bd 00 08 ae 3c
       -0.22944161 -0.2251173 -0.06925216 0.02124405
000360 8d 90 94 be e0 b6 c2 bc 98 1a 69 bd b8 bf 17 3e
       -0.29016533 -0.023768842 -0.056910127 0.14819229
000370 e0 f3 70 3c c6 f5 4b be 96 9c 50 3e 00 61 3c 3b
       0.014706582 -0.19917974 0.20372233 0.002874434
000380 9a 38 1e 3e 40 a0 22 3c 08 0b 90 be 3a 99 41 3e
       0.1545128 0.009925902 -0.28133416 0.18906108
000390 99 61 83 3e 44 49 1e 3e 38 7c 3c bd 9e d8 5e be
       0.256604 0.15457636 -0.0460169 -0.2176232
0003a0 fe 12 a4 bd 2a 42 bb bd 68 26 44 3e b0 7a ea 3d
       -0.08011435 -0.09143479 0.19155276 0.11449182
0003b0 4a 90 54 be d9 1a 92 3e a8 69 af bd 3d 63 88 3e
       -0.20758167 0.28536108 -0.08565074 0.26638213
0003c0 00 42 15 3e 10 19 dd bc c2 49 6e 3e c6 04 26 3e
       0.14575958 -0.02698949 0.23270324 0.16212758
0003d0 4b 09 77 be 78 24 61 be d0 15 3b 3d 22 0b 7d be
       -0.24124639 -0.21986568 0.0456751 -0.24711278
0003e0 6c 2f 0f 3e 00 93 68 3c f0 ef 8e be a6 d4 16 be
       0.13982934 0.014195204 -0.27917433 -0.14729556
0003f0 98 be 8c be a5 b9 92 be 50 95 95 3c 47 db 94 be
       -0.27489161 -0.2865726 0.018259674 -0.29073545

TF.self_attn.in_proj_bias f4 [48]
000000 00 00 00 00 00 00 00 00 00 00 00 00 00 00 00 00
       0.0 0.0 0.0 0.0
000010 00 00 00 00 00 00 00 00 00 00 00 00 00 00 00 00
       0.0 0.0 0.0 0.0
000020 00 00 00 00 00 00 00 00 00 00 00 00 00 00 00 00
       0.0 0.0 0.0 0.0
000030 00 00 00 00 00 00 00 00 00 00 00 00 00 00 00 00
       0.0 0.0 0.0 0.0
000040 00 00 00 00 00 00 00 00 00 00 00 00 00 00 00 00
       0.0 0.0 0.0 0.0
000050 00 00 00 00 00 00 00 00 00 00 00 00 00 00 00 00
       0.0 0.0 0.0 0.0
000060 00 00 00 00 00 00 00 00 00 00 00 00 00 00 00 00
       0.0 0.0 0.0 0.0
000070 00 00 00 00 00 00 00 00 00 00 00 00 00 00 00 00
       0.0 0.0 0.0 0.0
000080 00 00 00 00 00 00 00 00 00 00 00 00 00 00 00 00
       0.0 0.0 0.0 0.0
000090 00 00 00 00 00 00 00 00 00 00 00 00 00 00 00 00
       0.0 0.0 0.0 0.0
0000a0 00 00 00 00 00 00 00 00 00 00 00 00 00 00 00 00
       0.0 0.0 0.0 0.0
0000b0 00 00 00 00 00 00 00 00 00 00 00 00 00 00 00 00
       0.0 0.0 0.0 0.0

TF.self_attn.out_proj.weight f4 [16, 16]
000000 d5 9e f5 3c 1e 5f 2f bc f9 85 94 3c 65 59 7b 3c
       0.029982964 -0.01070383 0.01813029 0.015341138
000010 8b 74 fc bc db ac 23 3c 8c d3 86 bc e9 9a 83 3c
       -0.03081729 0.009989942 -0.016458295 0.016065078
000020 57 ce 2a 3c 4f 1e 97 3c 82 ba 89 bc 87 fb f6 bb
       0.010425172 0.01844707 -0.016812567 -0.0075373086
000030 bd c2 d1 3c 09 c7 2f 3d eb 32 28 3b 77 3e 5d 3c
       0.025605554 0.042914424 0.0025665115 0.013503662
000040 d7 45 18 3c d5 29 e8 3c bd 40 e1 b8 73 1b bc 3c
       0.009293995 0.02834026 -0.000107408945 0.022962308
000050 ca 59 3e 3d 39 41 d7 3b f8 df 62 3c 40 e0 b2 bb
       0.04647235 0.0065690544 0.013847344 -0.0054588616
000060 02 e6 bc bb 8f 99 5a bb c0 fa c5 bc 5c be 6f 3c
       -0.0057647238 -0.0033355688 -0.024167418 0.014632788
000070 3e 65 ee bc 6d dc 22 3c 77 76 10 bc 74 11 9a bc
       -0.02910101 0.009940249 -0.008817307 -0.01880715
000080 3b 45 d3 bc 2f de ff 3c 3a 1f 06 3c 21 bc dd bb
       -0.025789848 0.031233875 0.008186156 -0.0067668115
000090 72 3c 0f 3c b7 5e b8 3b 93 53 b9 bc 37 5c ed bc
       0.008742439 0.0056265253 -0.02262286 -0.028974636
0000a0 8a 18 1b bb b3 4c ee 3b d3 48 13 3d ac 90 d8 3c
       -0.002366575 0.007272327 0.035958122 0.026436172
0000b0 18 2d 1c 3c b4 c6 2e bc 97 7d 70 bc 2c e1 87 bc
       0.009532236 -0.010667492 -0.01467838 -0.016586863
0000c0 a6 e7 95 3b e4 01 3f 3c 72 70 b2 3c d2 b6 9f bc
       0.004574734 0.011658166 0.021782134 -0.019496355
0000d0 82 54 7d 3a e0 9a 88 3b 87 28 cb 3b 4f 3c ba 3a
       0.0009663777 0.004168853 0.0061998996 0.0014208647
0000e0 06 98 bf bc db 10 af bc b3 c1 07 39 66 d0 ac bb
       -0.02338792 -0.021370342 0.00012946762 -0.0052738665
0000f0 30 37 08 bd f8 b4 98 3c e4 a5 26 3c 9b 57 a6 bc
       -0.033255756 0.01864098 0.010171387 -0.020305445
000100 1d a0 31 bb c1 9e 4d bc 5c 7e 5b bc e0 6d 23 3c
       -0.0027103492 -0.012550057 -0.013396826 0.009974927
000110 1c ea b6 bc 25 95 60 3c 15 f2 fd bc ec b9 8d bc
       -0.022328429 0.013707434 -0.030999223 -0.017300569
000120 85 5f ea 3c 53 ce cf 3c 2b c5 35 bc ab 3d 7f bc
       0.02861 0.025366938 -0.011094372 -0.015578668
000130 6b be f3 ba af ed 9c 3c a7 73 09 3c 4a 04 25 3d
       -0.0018596178 0.019156305 0.00838939 0.040287293
000140 62 77 5d 3c 2a 60 ae bc 72 81 b6 bb d7 0a b9 3c
       0.013517233 -0.021286089 -0.0055696303 0.022588177
000150 b0 2c c7 3c 80 d1 5e bc e5 21 3a 3c 90 22 1a 3d
       0.0243133 -0.013599753 0.01136062 0.037630618
000160 d2 80 13 3a c7 06 6a bb ce 22 17 3c d9 7a 4f bc
       0.00056268007 -0.0035709606 0.009224607 -0.0126635665
000170 66 45 3f 3d 9b 12 3a ba 0d dc 12 bc 3c 81 1a 3c
       0.046697043 -0.00070981093 -0.008963597 0.009430226
000180 f8 cc ba bb 80 3a 49 ba c4 4a a4 3c cc 08 8b ba
       -0.0057007037 -0.00076762587 0.020055182 -0.001060748
000190 42 58 00 3c fb 09 0a 3c 57 27 92 3c cc cf 93 bc
       0.007833542 0.008425231 0.017841024 -0.018043421
0001a0 b0 c3 0c 3b 8c 03 97 bc 20 1c 8c b9 4e 71 54 3c
       0.0021478944 -0.018434308 -0.00026723836 0.012966467
0001b0 99 3f 13 3d 8b 8d 37 bd f7 a7 85 bc 9d 02 59 3c
       0.035949323 -0.04481272 -0.016315443 0.013245252
0001c0 3c 08 3a 3d 30 9a fd bb 72 4b ce bc d6 95 a7 3c
       0.04541801 -0.007739328 -0.02518246 0.02045719
0001d0 a8 d6 11 bb dc 74 26 3d d5 c8 31 bd b0 c8 cd bb
       -0.002225319 0.04063879 -0.04340442 -0.0062800273
0001e0 9e b4 9f 3c 2b 6c 71 bc 55 dc 3a 3c b0 25 be bc
       0.019495305 -0.014735262 0.01140507 -0.02321133
0001f0 f3 fa 48 3b 25 82 3f 3c 86 a7 b7 3c 04 24 9c bb
       0.0030667156 0.011688744 0.022418749 -0.0047650356
000200 d4 52 3d 3c 2a 97 aa 3b dc 71 bf bc 74 49 e6 ba
       0.011555392 0.0052060084 -0.023369722 -0.0017569498
000210 95 8d 0a 3c 2e a6 6a bc 1e 02 9f 3c ab 4f 43 3c
       0.008456607 -0.014321847 0.01941019 0.01192085
000220 e9 96 21 bc b5 34 64 3c ab 50 a5 bc 53 31 53 3c
       -0.00986264 0.013928582 -0.020180067 0.012890178
000230 eb 6e df 3c cf a3 6e bc cb 1c 22 bc a3 87 01 bd
       0.02727457 -0.014565422 -0.00989456 -0.031623494
000240 88 14 15 3c 33 54 3f 3c 4a 41 1c ba 6a 35 b9 3c
       0.009099133 0.0116777895 -0.00059606566 0.022608478
000250 fe ce 0e 3d cd 4d 10 3c d8 da 03 3d a9 6c 81 bc
       0.034865372 0.008807612 0.032191128 -0.015798884
000260 d0 1c 66 3b 2f d9 8b 3b 55 de 14 3d 80 4c 62 bc
       0.0035112388 0.0042678337 0.036344845 -0.013812184
000270 35 d3 3d 3b e0 57 23 bc 49 b9 af b9 6f 59 92 bc
       0.0028965 -0.0099696815 -0.0003351665 -0.01786491
000280 54 01 83 bc 7d b1 14 bc 3f 09 a3 3c ab d7 96 bc
       -0.015991844 -0.00907552 0.01990187 -0.018413385
000290 17 58 ab bc ad f0 2e 3c cd 82 2d 3c 97 89 de bc
       -0.020916028 0.010677499 0.010590267 -0.027165217
0002a0 13 fe 4e bc 9b c1 df 3b 14 c4 ea 3c 2b 4f b4 bb
       -0.012633818 0.0068284995 0.02865795 -0.0055026016
0002b0 19 ae 22 bc 4a a7 ab 3c 0c ee 87 bc f2 28 02 bd
       -0.009929203 0.020953793 -0.016593002 -0.03177733
0002c0 94 6c 1a bc fb ed 46 3b c8 a7 87 3c 20 15 81 3d
       -0.009425301 0.003035425 0.016559497 0.063028574
0002d0 90 50 01 3d 07 69 ca bb 13 55 1b 3d 57 87 91 bc
       0.03157097 -0.006177071 0.03792293 -0.01776473
0002e0 f5 f1 11 bb 44 e0 5c ba 82 5a c0 bc 18 eb 23 bc
       -0.0022269462 -0.0008425752 -0.023480657 -0.010004781
0002f0 02 01 02 bb 74 41 6a bc 34 75 63 bc 09 90 c9 3c
       -0.0019837026 -0.014297832 -0.013882924 0.024604814
000300 3e 57 23 bd e3 ab a1 3c e5 4d 23 ba ab ee 38 3c
       -0.039878123 0.019735282 -0.0006229564 0.011287372
000310 54 df d0 bb 46 5a 45 bd f9 63 a1 38 62 af 62 ba
       -0.006374279 -0.048181795 7.6956996e-05 -0.000864735
000320 b8 90 ca b8 70 b8 02 3d bb f2 d7 bb b7 83 13 3c
       -9.6590666e-05 0.031914175 -0.006590215 0.009003571
000330 a6 ec 22 3d 60 20 54 bc 69 1a 80 bc 62 0b f2 bb
       0.039776467 -0.012947172 -0.015637593 -0.007386611
000340 95 35 88 3c d4 c4 be bc f0 69 d0 3a 0e 02 6a 3c
       0.016627112 -0.023287214 0.0015900712 0.014282716
000350 0f 06 34 3c 34 9f e6 3b ee 2f 82 bc d5 37 c2 bc
       0.010987773 0.0070380215 -0.015891995 -0.023708263
000360 84 5f ad bb 41 69 17 bd 3f f5 80 bc 40 b4 8a 3b
       -0.0052909274 -0.036965612 -0.015741942 0.0042329133
000370 52 15 1e 3d 0e 8e 1f 3b 41 5e 3e 3d 82 05 c7 3c
       0.03859455 0.0024346146 0.046476606 0.024294619
000380 e7 4c c4 3b 33 46 a0 3a 34 80 17 bd 3e 79 2a 3d
       0.005990613 0.0012227952 -0.0369875 0.04161953
000390 27 78 91 bb af 8b 0d 3c 42 58 86 3b a7 c7 87 bc
       -0.004439372 0.00863926 0.0040998766 -0.016574694
0003a0 e8 f1 02 b9 89 e0 62 bc 0d fb a6 3b e7 5e 9e bc
       -0.00012487883 -0.013847479 0.0050958456 -0.019332362
0003b0 5c 5b 03 bc 8a 6a 1c bc 39 11 9d 38 22 82 fd bb
       -0.008017387 -0.009546885 7.489551e-05 -0.0077364603
0003c0 b0 c2 af 3c b5 e9 01 3c fb 49 68 3c 99 c8 bd bb
       0.021455139 0.007929255 0.014177795 -0.0057917354
0003d0 e4 f0 b9 3c 0c 0c 9e 3c 94 da aa 3c 0e d2 30 3d
       0.022697873 0.019292854 0.02085618 0.043169074
0003e0 05 0d e6 bc 7b ae ec bc 17 5e a2 bc f5 01 d0 3c
       -0.02808238 -0.028891793 -0.019820256 0.025391558
0003f0 dc d7 c2 3c e6 0f b0 3b 39 c2 09 bd 49 1a f2 bc
       0.02378457 0.005372989 -0.03363249 -0.02955355

TF.self_attn.out_proj.bias f4 [16]
000000 00 00 00 00 00 00 00 00 00 00 00 00 00 00 00 00
       0.0 0.0 0.0 0.0
000010 00 00 00 00 00 00 00 00 00 00 00 00 00 00 00 00
       0.0 0.0 0.0 0.0
000020 00 00 00 00 00 00 00 00 00 00 00 00 00 00 00 00
       0.0 0.0 0.0 0.0
000030 00 00 00 00 00 00 00 00 00 00 00 00 00 00 00 00
       0.0 0.0 0.0 0.0
